edge_classifier_gnn.pth (torch, 55952 bytes, 8 tensors)

conv1.bias f4 [64]
1.6291833 0.0 -0.13442054 -0.10596225 -0.15698203 0.0 1.6549574 1.6214616
1.6249354 1.6036649 0.0 0.0 1.702237 0.0 1.6158143 0.0
1.7141619 0.0 1.64544 -0.10070506 1.6670235 1.5710536 1.5682839 0.0
1.5977091 1.465004 -0.05409971 1.5400717 1.6445072 1.607276 0.0 1.5727861
1.6274592 1.6102568 0.0 1.6062262 1.7320412 0.0 0.0 0.0
0.0 -0.060220703 0.0 0.0 1.7259811 1.626903 1.5134189 -0.084112704
0.0 1.6129191 0.0 0.0 0.0 1.6986705 0.0 1.6596131
0.0 0.0 -0.059877634 0.0 1.6741898 0.0 0.0 -0.07472005
00000000: 1489 d03f 0000 0000 8aa5 09be bc02 d9bd
00000010: e6bf 20be 0000 0000 a5d5 d33f 0e8c cf3f
00000020: e2fd cf3f e444 cd3f 0000 0000 0000 0000
00000030: e7e2 d93f 0000 0000 01d3 ce3f 0000 0000
00000040: a869 db3f 0000 0000 c79d d23f 743e cebd
00000050: 0761 d53f 4918 c93f 87bd c83f 0000 0000
00000060: bb81 cc3f 4085 bb3f a897 5dbd 1221 c53f
00000070: 367f d23f 38bb cd3f 0000 0000 0e51 c93f
00000080: 9550 d03f e51c ce3f 0000 0000 d298 cd3f
00000090: 87b3 dd3f 0000 0000 0000 0000 0000 0000
000000a0: 0000 0000 fca9 76bd 0000 0000 0000 0000
000000b0: f3ec dc3f 5c3e d03f b6b7 c13f 4843 acbd
000000c0: 0000 0000 2274 ce3f 0000 0000 0000 0000
000000d0: 0000 0000 096e d93f 0000 0000 346e d43f
000000e0: 0000 0000 0000 0000 4042 75bd 0000 0000
000000f0: da4b d63f 0000 0000 0000 0000 d306 99bd

conv1.lin.weight f4 [64, 4]
1.6555036 1.4581312 1.9379407 1.5569255 -0.2851814 -0.24207999 -0.27794933 0.0027907789
-0.067329444 0.11183674 -0.12441076 0.1417171 -0.047309786 -0.3623743 0.089959025 -0.33086914
0.0085490495 0.05520228 -0.19178304 -0.19705397 -0.16293241 0.24817187 -0.17691135 -0.043812275
1.9216805 1.5010445 1.987352 1.3782984 1.8418927 1.167032 1.8610015 1.5045074
1.8310025 1.1321713 1.6716119 1.2789631 1.6978842 1.3790374 1.9631547 1.8195094
-0.075571 -0.036720276 -0.2970292 0.2101407 -0.043969095 -0.04943654 -0.07938899 0.22108793
1.7954792 1.2533022 1.632707 1.3942682 -0.23290825 0.028021485 0.18223163 0.13953069
1.6958234 1.5083352 2.0146182 1.7725066 -0.13796969 -0.13865186 0.22600394 0.058400095
1.68523 1.752809 1.9843374 1.8214817 -0.13097131 0.109929085 -0.100317806 0.13110739
1.8430614 1.3249904 1.5598844 1.5794898 -0.03400318 -0.1754074 -0.14179559 -0.37771237
1.6920164 1.453429 1.8674093 1.3658643 1.6538115 1.2814306 1.5966356 1.5882509
1.695348 1.1261612 1.8313763 1.5681592 -0.10427053 -0.008019507 0.14943191 -0.07184987
1.8098612 1.6859481 1.5085934 1.7529566 1.6906459 1.1628036 1.5271885 1.126893
8.795589e-05 -0.050828487 -0.11150481 -0.2794063 1.6743302 1.4031167 1.3722761 1.7633773
1.8316517 1.4477978 1.9599178 1.5272416 1.6908054 1.5748894 1.5408252 1.3521305
-0.19579673 -0.08903444 -0.13469146 0.090117395 1.6952584 1.6482545 1.9106324 1.4037807
1.7355149 1.5422536 1.5382302 1.6414053 1.6519564 1.2263852 1.8755854 1.734923
-0.1752038 -0.08834161 -0.030340523 0.17399588 1.8431433 1.2605214 1.4511684 1.6642175
1.833655 1.466594 1.7283821 1.4385054 -0.27908474 0.09430671 0.18723059 -0.12337127
-0.19078702 0.26845032 0.24739492 -0.17602493 -0.26369998 0.2279383 -0.29211628 0.29596388
-0.05950989 -0.08238493 -0.026549608 -0.26333606 -0.13885754 -0.02279387 0.16232164 0.14347656
-0.25728825 -0.27487716 -0.23790102 0.17247835 -0.25169215 0.12026596 0.2360028 0.14159724
1.726159 1.4505821 1.7048361 1.6640905 1.6920189 1.3852735 1.5113672 1.696816
1.7653664 1.0695015 1.5498403 1.7412002 -0.073439404 0.1293093 0.15521641 -0.11709983
-0.13712412 -0.02432403 0.048511356 -0.13097963 1.6691533 1.2016596 1.6616707 1.5503192
-0.24786726 0.0055910945 0.05143124 0.0015924871 -0.053415373 0.2445566 -0.23450813 -0.18363902
-0.08381675 0.27032596 -0.18010545 0.006984651 1.7591165 1.7585398 1.7199785 1.5896075
-0.24253306 0.052970946 -0.13081826 -0.023157448 1.6880815 1.3471586 1.9518582 1.6273321
-0.12373884 -0.2796527 0.21910238 0.22009504 -0.1365044 0.123099476 -0.16036126 0.011544019
-0.056298334 -0.07167727 -0.20417097 0.1662966 -0.24076492 -0.25832325 0.2898705 -0.24256766
1.7399279 1.3416941 1.8241942 1.4427736 -0.2132417 -0.23283073 -0.29595798 -0.0950561
-0.12621108 -0.209464 -0.027816772 -0.15070112 -0.15946177 0.15389942 0.16567457 0.05646654
00000000: 8be7 d33f 0ba4 ba3f 710e f83f 5649 c73f
00000010: 4c03 92be d1e3 77be 604f 8ebe 80e5 363b
00000020: 05e4 89bd a90a e53d 12cb febd 4a1e 113e
00000030: e8c7 41bd 2089 b9be 703c b83d ae67 a9be
00000040: 5011 0c3c c91b 623d c662 44be 84c8 49be
00000050: c1d7 26be c420 7e3e 4028 35be 8074 33bd
00000060: a0f9 f53f 3a22 c03f 8d61 fe3f 156c b03f
00000070: 24c3 eb3f 4e61 953f 4c35 ee3f b393 c03f
00000080: 4a5e ea3f fdea 903f 61f7 d53f 10b5 a33f
00000090: 4554 d93f 4c84 b03f a748 fb3f afe5 e83f
000000a0: f8c4 9abd 0068 16bd 3614 98be 202f 573e
000000b0: f018 34bd f87d 4abd b296 a2bd e064 623e
000000c0: 43d2 e53f 356c a03f 8bfc d03f 6177 b23f
000000d0: 807f 6ebe 508d e53c ee9a 3a3e 22e1 0e3e
000000e0: be10 d93f 2111 c13f 81ef 0040 7fe1 e23f
000000f0: ed47 0dbe c1fa 0dbe 946d 673e f034 6f3d
00000100: 9eb5 d73f 0c5c e03f c5fe fd3f 5026 e93f
00000110: 581d 06be 8022 e13d 6c73 cdbd 0441 063e
00000120: 70e9 eb3f 4999 a93f 4baa c73f b92c ca3f
00000130: eb46 0bbd ff9d 33be dd32 11be 8463 c1be
00000140: fe93 d83f f609 ba3f 4507 ef3f a4d4 ae3f
00000150: 18b0 d33f eb05 a43f 8e5e cc3f ce4b cb3f
00000160: 2a01 d93f 0d26 903f 8a6a ea3f 71b9 c83f
00000170: ca8b d5bd 4064 03bc ae04 193e 0626 93bd
00000180: 88a9 e73f 26cd d73f 9719 c13f e260 e03f
00000190: 1667 d83f c0d6 943f ea7a c33f 083e 903f
000001a0: f574 b838 8831 50bd a25c e4bd 580e 8fbe
000001b0: 7450 d63f 5499 b33f bea6 af3f 59b6 e13f
000001c0: 9073 ea3f 7051 b93f 96de fa3f a77c c33f
000001d0: 506c d83f fa95 c93f c339 c53f 9d12 ad3f
000001e0: f07e 48be b057 b6bd 8fec 09be 788f b83d
000001f0: 3afe d83f 01fa d23f 9a8f f43f 16af b33f
00000200: 5a25 de3f 9168 c53f bae4 c43f 9219 d23f
00000210: 4f73 d33f 31fa 9c3f 2f13 f03f f511 de3f
00000220: a068 33be 72ec b4bd b08c f8bc fa2b 323e
00000230: 1fec eb3f c458 a13f e3bf b93f 1405 d53f
00000240: 35b5 ea3f 5ab9 bb3f a03b dd3f f220 b83f
00000250: 32e4 8ebe e023 c13d 60b9 3f3e 14aa fcbd
00000260: ac5d 43be 5272 893e 1855 7d3e e13f 34be
00000270: af03 87be a868 693e 4490 95be 9488 973e
00000280: a4c0 73bd 6eb9 a8bd 907e d9bc fcd3 86be
00000290: ac30 0ebe 36ba babc a537 263e 85eb 123e
000002a0: 49bb 83be b3bc 8cbe 539c 73be 2a9e 303e
000002b0: cbdd 80be 004e f63d b8aa 713e defe 103e
000002c0: c7f2 dc3f adac b93f 1238 da3f eb00 d53f
000002d0: 1394 d83f a450 b13f 7b74 c13f 4431 d93f
000002e0: 87f7 e13f 6de5 883f 2b61 c63f a6df de3f
000002f0: 6667 96bd a869 043e 0df1 1e3e 09d2 efbd
00000300: 446a 0cbe 3043 c7bc d8b3 463d 861f 06be
00000310: d1a6 d53f fbcf 993f a0b1 d43f dc70 c63f
00000320: ead0 7dbe 8035 b73b 90a9 523d 00bb d03a
00000330: 14ca 5abd 0c6d 7a3e e622 70be de0b 3cbe
00000340: 1ea8 abbd 2a68 8a3e 906d 38be 80df e43b
00000350: bb2a e13f d517 e13f 4128 dc3f 4278 cb3f
00000360: 965a 78be 10f8 583d 39f5 05be b0b4 bdbc
00000370: 0e13 d83f b16f ac3f 7dd6 f93f 6b4c d03f
00000380: ca6a fdbd a42e 8fbe 605c 603e 9860 613e
00000390: cfc7 0bbe 941b fc3d be35 24be 2023 3d3c
000003a0: 1599 66bd 88cb 92bd 3212 51be a849 2a3e
000003b0: 148b 76be f242 84be e869 943e a863 78be
000003c0: f5b5 de3f a2bc ab3f 327f e93f ceac b83f
000003d0: 085c 5abe 2e6b 6ebe ce87 97be c6ac c2bd
000003e0: 7a3d 01be bb7d 56be 00e0 e3bc 6551 1abe
000003f0: f249 23be cf97 1d3e 98a6 293e 7549 673d

conv2.bias f4 [64]
-0.045511693 -0.03594951 -0.07471918 -0.096044295 0.0 -0.06005492 -0.06005463 -0.07452383
-0.06651701 -0.09977469 -0.05645831 -0.06316691 -0.091992885 -0.10231624 -0.059667036 0.0
-0.04658478 1.3158194 0.0 0.0 0.0 -0.07290228 -0.054437205 -0.11346886
-0.05914896 -0.025232222 -0.060011566 -0.095355116 1.302974 -0.023822207 -0.052906122 -0.06788704
0.0 -0.016416797 -0.08786611 -0.0600548 -0.07315437 0.0 -0.046464108 -0.024717152
-0.09621372 -0.06005478 -0.062215947 1.305043 -0.021184148 -0.05557814 0.0 -0.09500862
-0.090382576 0.0 0.0 0.0 -0.043187965 -0.059896145 -0.058937002 0.0
-0.06620565 -0.09349911 -0.014379829 -0.06942803 0.13780147 0.0 -0.07420611 -0.060054794
00000000: 786a 3abd cb3f 13bd 5f06 99bd dfb2 c4bd
00000010: 0000 0000 26fc 75bd d8fb 75bd f39f 98bd
00000020: 123a 88bd ac56 ccbd d440 67bd a75d 81bd
00000030: c466 bcbd 2d8b d1bd 6c65 74bd 0000 0000
00000040: afcf 3ebd c56c a83f 0000 0000 0000 0000
00000050: 0000 0000 ca4d 95bd 8cf9 5ebd 5d62 e8bd
00000060: 2e46 72bd ceb3 cebc b0ce 75bd 8b49 c3bd
00000070: dac7 a63f ca26 c3bc 17b4 58bd 5c08 8bbd
00000080: 0000 0000 857c 86bc 26f3 b3bd 06fc 75bd
00000090: f5d1 95bd 0000 0000 2651 3ebd a07b cabc
000000a0: b30b c5bd 00fc 75bd 26d6 7ebd a60b a73f
000000b0: 618a adbc e7a5 63bd 0000 0000 e193 c2bd
000000c0: 801a b9bd 0000 0000 0000 0000 0000 0000
000000d0: dde5 30bd a955 75bd ed67 71bd 0000 0000
000000e0: d496 87bd 767c bfbd 6099 6bbc 4830 8ebd
000000f0: d41b 0d3e 0000 0000 5ff9 97bd 04fc 75bd

conv2.lin.weight f4 [64, 64]
0.1540045 -0.040251285 -0.22909927 -0.14691006 0.009399561 -0.056272194 -0.19962883 -0.096436955
-0.04543279 0.025492039 0.092112884 0.104992256 0.051131006 -0.13948487 0.06127392 -0.15142703
0.10880786 0.20995058 -0.21557075 -0.058233473 0.13857214 -0.25851563 0.059868567 -0.019835666
-0.23003703 0.09637868 -0.012217259 -0.111898914 0.118520916 0.08058501 -0.13846016 0.16043313
0.034856137 0.07994524 0.11850841 -0.14110655 -0.0835801 0.1994432 0.03926851 0.13790102
-0.016581073 -0.20228156 0.12162815 0.17224355 0.026025178 -0.07079179 0.1178091 -0.20543937
-0.20184901 -0.017205851 -0.14310853 0.09718211 -0.18855599 -0.10135974 0.18483101 -0.11598046
-0.0043852776 -0.045126528 0.0034085535 -0.15171567 -0.11332675 0.09572713 0.17476763 -0.073419526
-0.13386181 -0.20037371 0.067686096 0.06355615 0.051664677 -0.06266643 -0.059577268 -0.060489416
0.07854698 -0.1364902 -0.05548379 -0.17653489 -0.14156324 0.017259061 -0.19389313 0.0064424872
-0.0064639035 0.07297261 -0.076092444 -0.10744934 0.1462762 -0.0934328 -0.026027037 -0.06365061
0.146119 -0.22400033 0.074346945 -0.2319378 -0.1378895 0.038046915 -0.07083759 -0.019454904
-0.088245474 -0.24547282 -0.1650888 0.15186611 -0.2272518 -0.04400511 -0.2132571 -0.16293131
0.06534146 0.057507917 0.20273556 -0.12126204 0.1428693 -0.15884435 0.11248944 0.2013218
-0.008210719 -0.013132776 0.057660654 0.16184016 -0.1677978 -0.17907602 -0.1240056 -0.102020726
0.12626185 -0.18178318 -0.042724818 -0.08613144 -0.14754865 -0.10317726 -0.07520895 -0.14079845
0.03789809 0.16064246 -0.07375167 -0.10129593 -0.12937567 -0.022418916 0.11137605 0.09789277
-0.22422147 -0.04972794 -0.11035317 -0.21041033 -0.2716817 -0.13576144 -0.014857439 -0.20994088
-0.25054842 0.061851606 0.11170153 0.11167917 -0.2765356 -0.020549065 -0.25668675 0.21408947
-0.2656136 0.090361595 -0.22652294 0.041052844 0.066302106 -0.24248488 0.008253843 0.049390018
-0.011411598 -0.19128625 -0.09471317 0.07796737 -0.11451358 -0.09239851 0.074179366 -0.08364318
0.10295828 0.10480481 0.06549166 -0.20735139 -0.27253264 -0.017890077 -0.17781506 0.083814055
-0.032134175 0.07139289 -0.1992084 -0.1112388 -0.014369577 -0.1052442 0.063885406 -0.014222548
0.15794055 0.1150123 -0.067861065 0.010424092 -0.123811275 0.04565887 -0.11936675 -0.17601988
-0.224977 0.053677306 0.013076216 0.06387106 0.03537461 -0.03133996 0.05309378 -0.060754664
-0.1983207 0.050829396 -0.2148168 0.073552266 0.0009768454 -0.06231904 -0.12856296 0.18683426
-0.01641006 0.041690484 -0.10015098 -0.29499364 -0.28214294 0.03412309 -0.013460806 0.04852493
-0.16465881 0.100338764 -0.10305589 -0.19332449 0.027324844 0.040532935 0.13937296 0.0025454925
-0.16831695 -0.008329104 -0.18957804 -0.13434283 0.06409384 0.064800605 0.16309823 0.18276815
-0.20575096 -0.05971352 -0.15625653 -0.067346305 -0.07967696 -0.19786967 -0.07412895 0.12659438
-0.11407509 -0.15011828 0.07504444 -0.0055592805 -0.055784926 -0.21874492 -0.16344717 -0.13572752
0.11955057 0.100300595 -0.27146214 0.051859662 -0.2908641 -0.07798137 0.12601535 0.12393876
00000000: 5bb3 1d3e 88de 24bd 0099 6abe 976f 16be
00000010: 9e00 1a3c ac7d 66bd 806b 4cbe bd80 c5bd
00000020: bc17 3abd aed4 d03c aea5 bc3d 2e06 d73d
00000030: bf6e 513d 1fd5 0ebe 5dfa 7a3d b00f 1bbe
00000040: a8d6 de3d 49fd 563e 94be 5cbe 3986 6ebd
00000050: dbe5 0d3e 295c 84be be38 753d 687e a2bc
00000060: d48e 6bbe 2f62 c53d e62a 48bc 422b e5bd
00000070: 18bb f23d c109 a53d 80c8 0dbe 9548 243e
00000080: 4fc5 0e3d 54ba a33d 8ab4 f23d 3c7e 10be
00000090: 0b2c abbd d73a 4c3e 04d8 203d ed35 0d3e
000000a0: 08d5 87bc e622 4fbe 2e18 f93d 9d60 303e
000000b0: c132 d53c 49fb 90bd e645 f13d b35e 52be
000000c0: 82b1 4ebe 49f3 8cbc 0b8b 12be 6a07 c73d
000000d0: d214 41be b295 cfbd 5744 3d3e 2a87 edbd
000000e0: 60b2 8fbb 98d6 38bd 0a62 5f3b 5a5b 1bbe
000000f0: db17 e8bd 960c c43d 49f6 323e fa5c 96bd
00000100: 1213 09be c42e 4dbe 029f 8a3d ba29 823d
00000110: 579e 533d 4257 80bd 4b07 74bd c0c3 77bd
00000120: 3ddd a03d 16c4 0bbe f842 63bd 90c5 34be
00000130: f4f5 10be e062 8d3c ec8b 46be 801b d33b
00000140: 27cf d3bb aa72 953d 5bd6 9bbd 660e dcbd
00000150: 6ec9 153e b259 bfbd a736 d5bc 405b 82bd
00000160: 38a0 153e 5860 65be 3643 983d 1a81 6dbe
00000170: e832 0dbe 15d7 1b3d 4c13 91bd e45f 9fbc
00000180: 0bba b4bd 3a5d 7bbe 0a0d 29be ca82 1b3e
00000190: b2b4 68be b43e 34bd 1260 5abe 77d7 26be
000001a0: bed1 853d 6c8d 6b3d e999 4f3e 3c58 f8bd
000001b0: 544c 123e 18a8 22be dd60 e63d 4d27 4e3e
000001c0: 4086 06bc db2a 57bc 942d 6c3d 6db9 253e
000001d0: 30d3 2bbe b45f 37be a6f6 fdbd 3ef0 d0bd
000001e0: c94a 013e 5f25 3abe 3800 2fbd ae65 b0bd
000001f0: fe16 17be 994e d3bd 2607 9abd 782d 10be
00000200: 073b 1b3d 757f 243e 1e0b 97bd 3e74 cfbd
00000210: 0e7b 04be e0a7 b7bc 2019 e43d 017c c83d
00000220: 509a 65be 86af 4bbd d800 e2bd ce75 57be
00000230: dd19 8bbe 0c05 0bbe 9e6c 73bc befa 56be
00000240: e247 80be 1c58 7d3d c6c3 e43d 0cb8 e43d
00000250: 1396 8dbe 8356 a8bc 726c 83be 453a 5b3e
00000260: 81fe 87be 800f b93d a1f5 67be 0727 283d
00000270: 66c9 873d f54d 78be 203b 073c 304d 4a3d
00000280: b6f7 3abc 8be0 43be faf8 c1bd 5bad 9f3d
00000290: 1986 eabd 6e3b bdbd 5aeb 973d 1e4d abbd
000002a0: cadb d23d e7a3 d63d 7e20 863d ec53 54be
000002b0: 6689 8bbe 368e 92bc 2715 36be b4a6 ab3d
000002c0: 209f 03bd 6f36 923d 49fd 4bbe 2bd1 e3bd
000002d0: 606e 6bbc 458a d7bd 5ad6 823d b105 69bc
000002e0: 2bbb 213e 928b eb3d befa 8abd d0c9 2a3c
000002f0: c490 fdbd cc04 3b3d 8e76 f4bd 8e3e 34be
00000300: 5f60 66be bcdc 5b3d a03d 563c d5ce 823d
00000310: f8e4 103d 545e 00bd dd78 593d e2d9 78bd
00000320: 9514 4bbe 7c32 503d eff8 5bbe 92a2 963d
00000330: 7e09 803a 4042 7fbd 02a6 03be 7b51 3f3e
00000340: 646e 86bc a4c3 2a3d f51b cdbd 6809 97be
00000350: 0a75 90be a7c4 0b3d b68a 5cbc 14c2 463d
00000360: 529c 28be 697e cd3d f70e d3bd dbf6 45be
00000370: 5ad8 df3c dd05 263d c9b7 0e3e 47d2 263b
00000380: 475b 2cbe cb76 08bc bf20 42be 2b91 09be
00000390: a243 833d 2eb6 843d 3903 273e 9327 3b3e
000003a0: 61b0 52be 2a96 74bd b601 20be dcec 89bd
000003b0: ad2d a3bd 599e 4abe ebd0 97bd f5a1 013e
000003c0: 33a0 e9bd 9bb8 19be e6b0 993d a02a b6bb
000003d0: bc7e 64bd abfe 5fbe b25e 27be 28fc 0abe
000003e0: eed6 f43d 666a cd3d 16fd 8abe cc6a 543d
000003f0: 24ec 94be b2b4 9fbd 2b0a 013e 9bd3 fd3d

edge_mlp.0.weight f4 [64, 132]
-0.014724539 0.100796856 0.0013160056 -0.03502837 0.031516016 0.028649047 0.012030347 -0.07345447
-0.09935443 0.029358346 -0.0042334604 -0.084455006 0.00034104555 -0.011906152 -0.00415967 -0.0429671
-0.0043170354 0.010554465 0.04023409 -0.07028752 -0.071414605 0.023911394 -0.088948086 0.02844315
0.035876248 -0.02988599 0.019003602 0.061473712 -0.088104166 -0.060430143 -0.08065232 -0.08041016
0.07863884 -0.12697028 0.02089234 0.08277133 0.03625784 0.04684022 -0.03651808 -0.050538935
0.01694007 0.10594698 -0.0142449485 -0.093889676 -0.05711451 0.000558175 -0.04414961 -0.046652164
0.06481048 0.027460448 -0.018175386 0.058276385 -0.019327912 -0.02702725 -0.112768464 0.05239956
-0.06268583 0.060545195 0.04057531 -0.060806073 -0.005058858 0.056354776 0.02441796 -0.019534731
-0.10931998 0.11659481 0.011025017 0.03597115 -0.052140336 0.020589702 0.0113251535 -0.0787955
0.01105928 -0.009968044 -0.0013139 0.0031439937 -0.060689665 -0.053209364 -0.117203 0.036518753
-0.011535631 0.022833467 0.0029296055 -0.0011355504 -0.0045629367 0.052399114 -0.07865935 0.014402007
-0.13507895 -0.037436347 -0.12952176 -0.05797512 0.015871324 -0.061071947 -0.052157868 -0.12952112
-0.020143658 -0.00782291 -0.045591112 0.013016924 0.046933442 -0.027134173 0.0028943454 0.0060576447
-0.046800643 -0.002241859 0.023596758 -0.07780649 -0.091524564 -0.03274385 -0.06872101 -0.05630312
-0.018989136 0.08364217 -0.013251565 -0.034154475 -0.13828342 -0.088171095 -0.014383059 0.022680946
-0.03980812 0.06306041 0.011738508 -0.11981607 0.10077486 -0.08647126 0.042593855 0.046223857
-0.12305494 -0.09697424 -0.028123707 -0.0060968786 -0.047883675 0.003951937 -0.13225389 -0.09526863
0.013713673 -0.10340568 -0.049005445 -0.033478793 -0.06687139 -0.025297098 -0.010195222 -0.1142535
-0.06297568 -0.14321254 -0.15414387 0.01909402 -0.11713008 -0.02566985 0.0100988 -0.009120218
-0.029356468 0.06176746 -0.11811734 -0.10951632 -0.12333549 0.0067196935 -0.13557239 -0.087813616
-0.084211074 0.007943099 -0.13770935 -0.02902055 0.074098796 -0.020755548 -0.090537995 -0.1004521
0.010425746 0.08594154 -0.11314176 -0.021101698 -0.05932709 -0.059859764 -0.066549085 -0.15831612
-0.1157939 0.0164315 -0.002469778 -0.040287495 -0.13764083 -0.059480824 0.048152223 0.04996459
-0.15341726 -0.027702453 -0.1574883 -0.022143856 -0.005115651 -0.16292487 -0.015426949 -0.13578235
-0.17785278 0.044001758 -0.08376407 -0.10062526 -0.08556901 0.0066642016 -0.0960545 -0.096031986
-0.045610685 -0.031947765 0.012468642 -0.014862418 0.0019118366 -0.13369253 -0.14322405 -0.110521436
-0.14573804 -0.09225904 -0.029276082 0.02568765 0.010366616 -0.09591808 0.010927372 -0.023072615
0.06580351 -0.05600079 -0.06557088 -0.11094074 -0.086615026 -0.02011859 -0.0152321365 -0.15617646
-0.038700663 -0.0016898097 -0.08724207 -0.15526547 -0.07524397 -0.009240898 -0.042599544 -0.04923057
0.035398692 0.061378315 -0.06225482 0.034985773 -0.017673673 -0.08532818 -0.08014793 -0.12144213
-0.1251686 -0.06584333 0.04572743 -0.12891999 -0.080596246 0.069095716 0.018520176 -0.024380177
-0.15629622 -0.007197766 -0.11140607 -0.07786829 -0.09912658 -0.07347959 0.0500407 -0.11743993
00000000: 313f 71bc 956e ce3d d27d ac3a e879 0fbd
00000010: f016 013d 68b1 ea3c ef1a 453c 4c6f 96bd
00000020: 567a cbbd ea80 f03c d7b8 8abb bff6 acbd
00000030: 5cce b239 0512 43bc d74d 88bb 45fe 2fbd
00000040: eb75 8dbb a3ec 2c3c 80cc 243d e7f2 8fbd
00000050: d241 92bd d4e1 c33c 6a2a b6bd 9c01 e93c
00000060: f9f2 123d 77d3 f4bc 71ad 9b3c dccb 7b3d
00000070: f56f b4bd 9985 77bd 0b2d a5bd 15ae a4bd
00000080: 660d a13d 7f04 02be 6a26 ab3c 0484 a93d
00000090: 1a83 143d 88db 3f3d fb93 15bd ea01 4fbd
000000a0: e7c5 8a3c bbfa d83d a563 69bc 3b49 c0bd
000000b0: e8f0 69bd 7d52 123a 39d6 34bd 5716 3fbd
000000c0: 5bbb 843d bcf4 e03c 8ce4 94bc 38b3 6e3d
000000d0: 9255 9ebc 4068 ddbc 27f3 e6bd eca0 563d
000000e0: 6e61 80bd 3dfe 773d 4c32 263d ca0f 79bd
000000f0: c7c4 a5bb 44d4 663d 2c08 c83c 4d07 a0bc
00000100: 27e3 dfbd 42c9 ee3d 46a2 343c 7c56 133d
00000110: 1b91 55bd bcab a83c 238d 393c 895f a1bd
00000120: fb31 353c 0251 23bc 2b37 acba 760b 4e3b
00000130: ba95 78bd 10f2 59bd 2008 f0bd b094 153d
00000140: f1ff 3cbc 400d bb3c a0fe 3f3b c0d6 94ba
00000150: b084 95bb 74a0 563d 2718 a1bd 65f6 6b3c
00000160: 2352 0abe db56 19bd 5aa1 04be 5277 6dbd
00000170: 9404 823c 9426 7abd 7da3 55bd 2fa1 04be
00000180: 5004 a5bc aa2b 00bc bfbd 3abd f044 553c
00000190: 483d 403d 7c48 debc 0faf 3d3b 357f c63b
000001a0: 08b2 3fbd 27ec 12bb fd4d c13c 0259 9fbd
000001b0: 3b71 bbbd 6a1e 06bd 9abd 8cbd 1a9e 66bd
000001c0: 1b8f 9bbc 964c ab3d 181d 59bc 90e5 0bbd
000001d0: 2b9a 0dbe 0c93 b4bd eca6 6bbc 64cd b93c
000001e0: d70d 23bd d125 813d df52 403c 2162 f5bd
000001f0: 0d63 ce3d d817 b1bd e576 2e3d 3a55 3d3d
00000200: 3a04 fcbd 6e9a c6bd b063 e6bc 53c8 c7bb
00000210: ac21 44bd 407f 813b 906d 07be 331c c3bd
00000220: 50af 603c 5bc6 d3bd efb9 48bd 0f21 09bd
00000230: def3 88bd dc3b cfbc dc09 27bc bdfd e9bd
00000240: 65f9 80bd 4fa6 12be e4d7 1dbe 106b 9c3c
00000250: e5e1 efbd 9449 d2bc 7075 253c f86c 15bc
00000260: fa7c f0bc e0ff 7c3d 81e7 f1bd 184a e0bd
00000270: 5197 fcbd e030 dc3b 7dd3 0abe a0d7 b3bd
00000280: db76 acbd c623 023c ae03 0dbe 81bc edbc
00000290: 1cc1 973d 8a07 aabc fc6b b9bd d5b9 cdbd
000002a0: c0d0 2a3c 1e02 b03d deb6 e7bd 78dd acbc
000002b0: f600 73bd 832f 75bd e34a 88bd 9f1d 22be
000002c0: 5a25 edbd 5a9b 863c 00dc 21bb 8004 25bd
000002d0: b8f1 0cbe 2aa2 73bd 443b 453d aca7 4c3d
000002e0: 6a19 1dbe 41f0 e2bc 9d44 21be 0867 b5bc
000002f0: 31a1 a7bb c7d5 26be 50c1 7cbc 870a 0bbe
00000300: 0a1f 36be 303b 343d 7f8c abbd 9e14 cebd
00000310: ce3e afbd 605f da3b 39b8 c4bd 6bac c4bd
00000320: 45d2 3abd a9db 02bd 4649 4c3c 8081 73bc
00000330: 9796 fa3a b2e6 08be 53a9 12be 1059 e2bd
00000340: 5a3c 15be 4ff2 bcbd 65d4 efbc e86e d23c
00000350: bdd8 293c b370 c4bd b808 333c c802 bdbc
00000360: fec3 863d 1661 65bd 074a 86bd e634 e3bd
00000370: 3863 b1bd becf a4bc 3690 79bc b9ec 1fbe
00000380: 9684 1ebd 9b7c ddba f8ab b2bd e9fd 1ebe
00000390: 8319 9abd 2367 17bc dc7c 2ebd ffa5 49bd
000003a0: 38fe 103d d467 7b3d e9fe 7ebd 3e4d 0f3d
000003b0: 61c8 90bc 8ac0 aebd 9924 a4bd a7b6 f8bd
000003c0: 332c 00be ded8 86bd b04c 3b3d 9a03 04be
000003d0: a50f a5bd 0e82 8d3d a0b7 973c f0b8 c7bc
000003e0: 1e0c 20be 3ddb ebbb de28 e4bd 6979 9fbd
000003f0: e002 cbbd 787c 96bd 7af7 4c3d 5984 f0bd

edge_mlp.0.bias f4 [64]
-0.0826179 -0.2080479 0.07186425 0.07615813 -0.30459788 0.026137099 0.0095677 -0.011834703
0.07878408 -0.020354928 0.054946236 -0.0056624804 0.0025776774 -0.32356116 -0.71026427 0.03023962
0.068390355 -0.6664296 -0.14455928 -0.08161292 0.22025779 0.069567606 -0.00070943683 -0.7929624
0.060576394 0.0743555 0.012015127 0.04327561 -0.079427354 0.19909427 0.08008219 -0.26076958
-0.06438706 -0.04736554 -0.009217236 -0.56943697 -0.042400464 0.03345313 -0.008561861 -0.017659292
-0.027458308 -0.082450435 0.067114055 -0.2399804 -0.026971783 -0.087420814 0.044115946 -0.06749993
0.34657544 0.005785018 0.7096626 0.06809862 -0.076289535 0.1185448 0.03984329 0.022992551
-0.02829888 -0.058053244 0.07659547 0.48380774 -0.043735936 -0.09841521 0.11220367 -0.028353501
00000000: 9333 a9bd 820a 55be 902d 933d cbf8 9b3d
00000010: 41f4 9bbe 781d d63c d8c1 1c3c 58e6 41bc
00000020: 8c59 a13d 61bf a6bc 4e0f 613d 548c b9bb
00000030: 40ee 283b cfa9 a5be e1d3 35bf 14b9 f73c
00000040: 3e10 8c3d 219b 2abf 5907 14be ad24 a7bd
00000050: 428b 613e 7679 8e3d 80f9 39ba 95ff 4abf
00000060: f41e 783d b247 983d 18db 443c c441 313d
00000070: cfaa a2bd 5edf 4b3e 2202 a43d 9783 85be
00000080: 5ddd 83bd 5e02 42bd e403 17bc 9fc6 11bf
00000090: 1cac 2dbd 2606 093d 0c47 0cbc 38aa 90bc
000000a0: 3ff0 e0bc c6db a8bd 1873 893d 6cbd 75be
000000b0: eef3 dcbc af09 b3bd ecb2 343d 673d 8abd
000000c0: 5672 b13e 4090 bd3b 73ac 353f 4a77 8b3d
000000d0: b03d 9cbd 9ec7 f23d b832 233d e05a bc3c
000000e0: 0ed3 e7bc 3dc9 6dbd 16de 9c3d a6b5 f73e
000000f0: 7424 33bd ea8d c9bd 0acb e53d 9a45 e8bc

edge_mlp.2.weight f4 [2, 64]
-0.014393737 0.11391164 0.05433844 0.06757059 -0.033450715 -0.12159145 -0.02777625 0.03260693
-0.030207679 -0.10473958 -0.08202279 0.12271791 -0.055506572 0.0354902 0.015098579 -0.07317108
0.08394764 -0.005651157 0.11394014 0.051023126 -0.03206988 -0.06533088 -0.08046211 -0.074400805
-0.0729001 -0.045019433 0.091242194 -0.07616146 0.052570675 0.02357042 -0.114191934 0.06382859
0.09163338 0.11434622 0.07421611 -0.09878785 0.045263246 -0.031402484 0.010247151 0.113951415
0.03652984 0.013594188 -0.12346569 0.086620554 -0.026017478 -0.019570747 0.10734798 -0.029468155
0.023766104 0.08897394 -0.01411881 0.008576676 -0.004994899 -0.025797725 -0.054996893 -0.06936373
-0.06513952 -0.11206178 -0.054238424 -0.03625053 0.05871539 -0.07383514 -0.03547075 -0.117754124
0.016906368 0.12011891 0.018541187 0.041159537 -0.032317556 -0.04294373 -0.030455068 -0.057868406
-0.018597215 -0.08120982 -0.09151862 0.040562112 0.06353271 0.0371456 0.01483585 0.007108584
-0.104305744 -0.0058083544 0.12120706 -0.04218568 -0.031658586 -0.044524103 -0.022178307 -0.07466039
-0.0034002513 -0.11910249 0.12396273 -0.11831266 0.05872997 0.026349638 0.06890719 0.06381948
0.09252754 -0.015672639 0.021960173 -0.09870037 0.016092539 0.0017471611 0.0022008198 0.09461214
0.033904944 -0.004350356 0.092046276 0.06759696 -0.021732591 -0.027660346 0.068652496 0.0837007
0.022318998 0.043708935 -0.006504079 0.023470014 -0.09546551 -0.028290119 0.048628643 0.11687186
-0.109741 0.06826055 0.11358823 -0.0353047 0.011607453 -0.046968147 -0.06795938 -0.11468276
00000000: b5d3 6bbc 824a e93d fc91 5e3d 7362 8a3d
00000010: 9e03 09bd f004 f9bd 058b e3bc d88e 053d
00000020: 1876 f7bc b481 d6bd 91fb a7bd 8753 fb3d
00000030: dc5a 63bd 2c5e 113d 0860 773c b8da 95bd
00000040: beec ab3d 572d b9bb 7359 e93d a0fd 503d
00000050: b55b 03bd 32cc 85bd 52c9 a4bd 735f 98bd
00000060: a64c 95bd 4c66 38bd 30dd ba3d 8afa 9bbd
00000070: 5954 573d c116 c13c 76dd e9bd 90b8 823d
00000080: 48aa bb3d 5a2e ea3d 9efe 973d 4951 cabd
00000090: f465 393d e49f 00bd abe3 273c 5c5f e93d
000000a0: 50a0 153d 28ba 5e3c 94db fcbd 1e66 b13d
000000b0: 9b22 d5bc d552 a0bc 42d9 db3d 3367 f1bc
000000c0: 22b1 c23c f837 b63d 9552 67bc 3085 0c3c
000000d0: 40ac a3bb c055 d3bc 6c44 61bd 920e 8ebd
000000e0: de67 85bd a680 e5bd 1c29 5ebd 707b 14bd
000000f0: 8c7f 703d e136 97bd c749 11bd 1329 f1bd
00000100: 397f 8a3c e700 f63d b0e3 973c e796 283d
00000110: 6a5f 04bd c4e5 2fbd e87c f9bc 6c07 6dbd
00000120: 3059 98bc 5651 a6bd 1d6e bbbd 7524 263d
00000130: 701d 823d fc25 183d 1112 733c 20ef e83b
00000140: 409e d5bd 0254 bebb 683b f83d e4ca 2cbd
00000150: 6fac 01bd e85e 36bd 48af b5bc 8ce7 98bd
00000160: c0d6 5ebb 02ec f3bd 2ce0 fd3d e84d f2bd
00000170: d68e 703d 32db d73c 361f 8d3d cab3 823d
00000180: 147f bd3d e863 80bc d2e5 b33c 6b23 cabd
00000190: 80d4 833c 0001 e53a a13b 103b 02c4 c13d
000001a0: e9df 0a3d 6e8d 8ebb c282 bc3d 4670 8a3d
000001b0: 8c08 b2bc f397 e2bc ae99 8c3d 466b ab3d
000001c0: 55d6 b63c 2408 333d 2b20 d5bb 3044 c03c
000001d0: 6c83 c3bd aec0 e7bc d42e 473d 845a ef3d
000001e0: e4bf e0bd 30cc 8b3d f2a0 e83d a99b 10bd
000001f0: 302d 3e3c ac61 40bd 4a2e 8bbd cbde eabd

edge_mlp.2.bias f4 [2]
-5.6865244 5.638089
00000000: 02f8 b5c0 3a6b b440
